Assets/example.onnx (onnx, 96746 bytes, 8 tensors)

actor/a4/MatMul/ReadVariableOp:0 f4 [80, 2]
0	0x3e29a09c	0.16565174
1	0xbe22b879	-0.15890683
2	0xbdf147c4	-0.11781266
3	0x3e264f43	0.16241173
4	0xbe4c79d4	-0.19968349
5	0xbd4a3750	-0.049369156
6	0xbd125d74	-0.035733655
7	0xbe2b3005	-0.16717537
8	0x3e309ec8	0.1724807
9	0xbe53d594	-0.20686942
10	0x3d81abd8	0.06331605
11	0xbdb3fcc5	-0.08788446
12	0xbe79c08e	-0.2438986
13	0xbe6421fd	-0.2227859
14	0x3e5906c6	0.2119399
15	0xbe64deb5	-0.22350581
16	0x3e6df0e4	0.23236424
17	0x3e826c97	0.25473472
18	0xbe419bd0	-0.18907094
19	0x3d78cc83	0.060741913
20	0x3dfd792c	0.12376627
21	0xbd07c595	-0.033147413
22	0x3e87518a	0.26429397
23	0xbe1e3bd9	-0.15452518
24	0x3e201ea8	0.15636694
25	0xbdbe404c	-0.092896074
26	0xbe587e38	-0.21141899
27	0x3cd973c5	0.026544461
28	0xbe7db9b1	-0.24777867
29	0xbe75f052	-0.24017456
30	0x3d672260	0.056429267
31	0x3e670914	0.22562057
32	0x3e055630	0.13021159
33	0xbe19ba1e	-0.15012404
34	0x3cc800f0	0.02441451
35	0xbdd73f40	-0.10510111
36	0xbdbf78b0	-0.09349191
37	0x3e862019	0.26196364
38	0xbe47448c	-0.19459742
39	0xbe2260df	-0.15857266
40	0xbe118964	-0.14212567
41	0xbd5f1a87	-0.054468658
42	0xbd1eb368	-0.038745314
43	0x3d1e6f2a	0.038680233
44	0x3e0bcd32	0.13652495
45	0x3e41df38	0.18932807
46	0xbe1a3bfc	-0.15061945
47	0xbe2a09f2	-0.16605356
48	0xbe610315	-0.21973832
49	0x3e45ffee	0.1933591
50	0x3e0fe026	0.1405035
51	0x3e3aae76	0.18230614
52	0xbd3bc180	-0.045838833
53	0xbe5b4685	-0.2141362
54	0xbbca1900	-0.006167531
55	0x3e7a31d8	0.24433076
56	0x3df94308	0.12170988
57	0xbe09d7c6	-0.13461217
58	0x3d87c8ec	0.0663012
59	0xbe61410b	-0.21997468
60	0x3e0e0912	0.13870648
61	0xbccda713	-0.025104081
62	0x3d0c2d40	0.03422284
63	0x3e4b863a	0.19875422
64	0xbd9db582	-0.077006355
65	0x3caba1e6	0.020951223
66	0x3e7805cc	0.24220961
67	0xbddd287c	-0.107987374
68	0x3dc078fc	0.09398076
69	0x3d82fcc2	0.06395866
70	0x3e2a41c6	0.16626653
71	0xbddb1d4f	-0.106989495
72	0xbe7b8f85	-0.24566467
73	0xbd93988d	-0.07206831
74	0xbdc1cba0	-0.094626665
75	0xbe05734f	-0.13032268
76	0x3e29f948	0.16599
77	0x3d89ea42	0.06734134
78	0xbe8770b4	-0.26453173
79	0xbe898166	-0.26856536
80	0x3e38ad0c	0.18034762
81	0x3e09d6ab	0.13460796
82	0x3e7cd608	0.24691021
83	0x3db6a0ef	0.089174144
84	0xbdbfc0ea	-0.09362967
85	0xbd9c1ac2	-0.07622291
86	0xbe5a3aa2	-0.21311429
87	0x3d8498b3	0.064744376
88	0xbe48a805	-0.19595344
89	0xbd989a32	-0.074512854
90	0x3e47c8b8	0.19510162
91	0xbd76935b	-0.060199123
92	0xbe0b62f5	-0.13611968
93	0xbe403230	-0.18769145
94	0x3dd29f38	0.10284275
95	0xbe140239	-0.14453973
96	0xbc999e40	-0.018752217
97	0xbdec0970	-0.115252376
98	0xbdda2c14	-0.106529385
99	0xbe822bab	-0.2542394
100	0x3e434caa	0.19072214
101	0x3df6ff60	0.12060428
102	0xbdf6350a	-0.12021835
103	0xbd8da09a	-0.06915398
104	0x3d0f8fe0	0.03504932
105	0xbe438aa4	-0.19095856
106	0x3e47d2d4	0.19514018
107	0x3e39d917	0.1814922
108	0xbe0dce4d	-0.13848229
109	0x3e6e9e8c	0.23302668
110	0xbe135d71	-0.14391114
111	0xbe296f64	-0.16546398
112	0x3e762300	0.24036789
113	0x3e01b744	0.12667567
114	0x3e5c252c	0.21498555
115	0x3e5b21c2	0.21399596
116	0xbe57aceb	-0.21062057
117	0xbdfdcd34	-0.12392655
118	0x3e457158	0.19281518
119	0x3e0cd617	0.13753544
120	0x3dafdee0	0.08587432
121	0xbcef0341	-0.029176356
122	0xbdbe8d30	-0.09304273
123	0x3cf3de34	0.02976904
124	0x3e0d0980	0.13773155
125	0x3e80042b	0.2500318
126	0x3e381260	0.1797576
127	0x3e81d2bc	0.2535609
128	0xbdded00e	-0.10879527
129	0x3e4bf328	0.19916975
130	0xbe1723f6	-0.14759812
131	0x3d6805c9	0.056646142
132	0xbe5e3016	-0.21698031
133	0x3d7344d0	0.059391797
134	0x3e278094	0.16357642
135	0xbc7486dc	-0.014924731
136	0x3d1c6620	0.03818333
137	0x3caf95b0	0.021433681
138	0x3d080ed8	0.03321728
139	0xbe4e7bd5	-0.20164426
140	0x3d2f7310	0.04283434
141	0xbdd8eb5e	-0.10591768
142	0xbe628499	-0.22120894
143	0xbe76b024	-0.2409063
144	0x3e30f984	0.17282683
145	0x3e3a77a0	0.18209696
146	0xbe72aaa9	-0.23697914
147	0x3e355333	0.17707519
148	0x3d9e9f38	0.07745212
149	0x3e7cf4c6	0.24702749
150	0x3d890760	0.0669086
151	0xbd7def93	-0.061996054
152	0x3d8dba14	0.06920257
153	0x3e1ef792	0.15524128
154	0xbe688f16	-0.22710833
155	0xbe896059	-0.2683132
156	0x3e6c4e00	0.2307663
157	0xbe490ace	-0.19633028
158	0xbd9bf3f8	-0.07614893
159	0xbd7080e8	-0.058716685

actor/a4/BiasAdd/ReadVariableOp:0 f4 [2]
0	0x00000000	0.0
1	0xb9ab9859	-0.0003272917

actor/a3/MatMul/ReadVariableOp:0 f4 [100, 80]
0	0x3dbfecf4	0.09371367
1	0x3e13fe7e	0.1445255
2	0xbde98ad6	-0.11403434
3	0xbe1f34d5	-0.15547498
4	0xbd77f5c2	-0.060537107
5	0xbe08e55a	-0.1336874
6	0xbbca68c0	-0.006177038
7	0xbd3c6c2c	-0.0460016
8	0xbd2576b7	-0.04039642
9	0xbc1546d3	-0.009111124
10	0xbd93ebec	-0.07222733
11	0xbd20ad30	-0.039227664
12	0x3c6a9300	0.014317274
13	0x3d340556	0.0439504
14	0xbe1f034a	-0.15528598
15	0x3e1a8eb9	0.15093507
16	0x3e2bed23	0.16789679
17	0x3dc19160	0.09451556
18	0x3d41ec78	0.047344655
19	0xbc96df08	-0.018416896
20	0x3dd73805	0.10508732
21	0x3d0ddd35	0.034634788
22	0x3e1452e0	0.1448474
23	0xbe013d62	-0.12621072
24	0xbe14f8da	-0.14548054
25	0xbbb40380	-0.0054935813
26	0x3e1d6092	0.1536887
27	0x3e015c88	0.12632954
28	0xbe1390e9	-0.14410748
29	0x3d7cd180	0.061723232
30	0x3e37a74f	0.17934917
31	0x3d233654	0.039846733
32	0xbbda1d21	-0.0066563045
33	0x3e09648f	0.13417266
34	0xbce21751	-0.027599009
35	0xbdfc70fb	-0.12326237
36	0xbde1bf61	-0.11022831
37	0x3cb83860	0.02248782
38	0x3da767b3	0.08174076
39	0xbdbe889c	-0.093034
40	0x3d48e221	0.04904378
41	0x3dafa0c6	0.08575587
42	0xbdc63686	-0.09678368
43	0x3e36b271	0.17841507
44	0xbca7a3ca	-0.020463843
45	0x3c88da10	0.016705543
46	0xbd210e5c	-0.039320335
47	0x3de433e2	0.11142708
48	0x3b15d100	0.002286017
49	0x3e0c4d97	0.13701473
50	0x3e342d4f	0.17595409
51	0x3d336e77	0.04380652
52	0xbd0ee456	-0.034885727
53	0x3c609c77	0.013709179
54	0x3d81e0e2	0.06341721
55	0xbde4fc6b	-0.111809574
56	0xbdd4bc48	-0.10387474
57	0xbac64b00	-0.0015128553
58	0x3dc13190	0.094332814
59	0x3e1bb38d	0.15205212
60	0xbd59f703	-0.053214084
61	0x3de6f6fc	0.11277577
62	0xbdcac79d	-0.099013545
63	0x3dd57f96	0.10424726
64	0x3e2b27d4	0.16714412
65	0x3e0d44c7	0.13795768
66	0xbdf88e24	-0.12136486
67	0xbda72260	-0.081608534
68	0x3c0938f0	0.008375391
69	0x3b0f9ec0	0.002191469
70	0x3dceb860	0.100937605
71	0x3dd7140f	0.10501873
72	0x3c4c3181	0.0124629745
73	0x3ddc5b8d	0.107596494
74	0xbc5ca3b3	-0.013466763
75	0x3d88fe38	0.066891134
76	0x3ce40f67	0.027839376
77	0xbdbe4ba1	-0.09291769
78	0xbe34d3a3	-0.17658858
79	0xbe39286f	-0.1808183
80	0x3ca9aaf0	0.020711392
81	0xbe240f4f	-0.16021465
82	0xbdc6ce32	-0.097072974
83	0x3e063bfa	0.13108817
84	0x3d9bce3c	0.076076955
85	0xbd0d0010	-0.034423888
86	0xbe239f38	-0.15978706
87	0xbd9d970d	-0.07694826
88	0x3de3dc90	0.11126053
89	0xbdea5be8	-0.11443311
90	0xbe284da6	-0.1643587
91	0x3da34098	0.07971305
92	0xbdd312e8	-0.103063405
93	0x3d7198a4	0.05898346
94	0x3df20818	0.1181795
95	0xbe0dcf6d	-0.13848658
96	0x3bc01620	0.0058620125
97	0xbdaee043	-0.08538868
98	0xbe0cbbcf	-0.13743518
99	0x3e0e80a0	0.13916254
100	0xbd991baa	-0.074759796
101	0x3d093b4c	0.033503816
102	0x3e2ab198	0.16669309
103	0xbc91d4e0	-0.017801702
104	0xbdc3428d	-0.09534178
105	0x3a664300	0.00087837875
106	0x3ba22560	0.004948303
107	0xbdaa55ff	-0.08317184
108	0xbd549ce0	-0.05190742
109	0xbdcc6c0f	-0.09981548
110	0x3e07707e	0.13226506
111	0x3dfb527c	0.12271592
112	0xbd5b05b8	-0.05347225
113	0x3dcc3c80	0.09972477
114	0x3dd6f510	0.10495961
115	0xbdb17ac0	-0.08665991
116	0xbcde1080	-0.027107477
117	0xbe352b6c	-0.17692345
118	0xbe0141ea	-0.126228
119	0x3c9a3b98	0.018827245
120	0x3db3418c	0.087527364
121	0x3db8979c	0.09013292
122	0xbe372a3b	-0.17887203
123	0x3ddc1d68	0.10747796
124	0xbc097530	-0.008389756
125	0x3db8bdc8	0.09020573
126	0xbe01dcc3	-0.1268187
127	0xbe2318cf	-0.15927432
128	0xbc2ee250	-0.010674074
129	0x3dd00d38	0.10158771
130	0xbe30dd36	-0.17271885
131	0x3e18b4be	0.14912698
132	0xbdd44a7e	-0.10365771
133	0xbe2c381b	-0.16818278
134	0xbe0fd365	-0.14045484
135	0x3d884aae	0.06654869
136	0xbe0ec8a4	-0.13943726
137	0xbcd4ac10	-0.025960952
138	0xbe0f2171	-0.139776
139	0xbdbc555e	-0.0919597
140	0x3d21bf80	0.03948927
141	0x3e1c25f2	0.1524885
142	0x3e1d6c7e	0.15373418
143	0xbdb7bf48	-0.08972031
144	0x3e0821f4	0.13294202
145	0xbd849658	-0.06473988
146	0xbe01d827	-0.12680112
147	0xbe12f338	-0.14350593
148	0xbdc0a620	-0.09406686
149	0x3dd8baac	0.1058248
150	0xbd698004	-0.05700685
151	0xbe376fa2	-0.17913678
152	0x3e05dcde	0.13072535
153	0xbd8c4413	-0.068489216
154	0x3e2884ae	0.16456863
155	0x3e2dc28c	0.16968745
156	0x3d660bd0	0.05616361
157	0x3dc7d0dc	0.09756634
158	0xbd573c04	-0.05254747
159	0xbe17f428	-0.14839232
160	0xbe285fce	-0.16442797
161	0xbd6080b4	-0.05481024
162	0xbd0d2868	-0.034462363
163	0x3cc724e8	0.02430959
164	0x3e1c5f72	0.15270784
165	0x3cf5b659	0.029994177
166	0x3e1ebff6	0.15502915
167	0x3e23755a	0.15962735
168	0x3e09160e	0.1338732
169	0xbe028a54	-0.1274808
170	0xbd891c81	-0.0669489
171	0xbce9e5f0	-0.028552026
172	0x3e2dd7a8	0.16976798
173	0xbe1f1506	-0.15535364
174	0xbe23cb9b	-0.15995638
175	0x3c91aac2	0.017781619
176	0x3e00d6e3	0.12581973
177	0x3de75a3f	0.1129651
178	0xbdbb5127	-0.09146338
179	0x3e0049f8	0.12528217
180	0xbdaf50ee	-0.08560358
181	0xbc873e45	-0.016509185
182	0xbe3092ca	-0.17243496
183	0x3de8d256	0.113682434
184	0xbd314722	-0.04328073
185	0xbd708c66	-0.058727644
186	0x3e01b2fe	0.12665936
187	0x3d891fe1	0.066955335
188	0x3e0f1296	0.13971934
189	0x3e0f2964	0.13980633
190	0x3e3b45d4	0.18288356
191	0x3dcefa18	0.10106295
192	0xbd6d3d22	-0.05791963
193	0x3deaeaa9	0.11470539
194	0xbd710679	-0.058844063
195	0x3e103416	0.14082369
196	0x3db67354	0.08908716
197	0x3df7cd0f	0.12099659
198	0x3e312992	0.17301014
199	0xbd00bb80	-0.031428814
200	0x3c1777cd	0.009244871
201	0xbe0d02e3	-0.13770632
202	0xbe05684b	-0.13028066
203	0x3e1e0b2b	0.15433948
204	0x3ce487dc	0.027896814
205	0xbdcacfdb	-0.099029265
206	0x3db28b84	0.08718017
207	0x3d76ddc3	0.060270082
208	0xbd90a840	-0.07063341
209	0x3b25d9f4	0.0025306912
210	0x3cef1080	0.029182673
211	0x3e23eb58	0.16007745
212	0xbe0eb821	-0.13937427
213	0x3db36c06	0.08760838
214	0x3e199dfa	0.1500167
215	0x3d8ee1c6	0.069766566
216	0xbd3c9af8	-0.046046227
217	0xbdbe5ab7	-0.09294646
218	0x3d639b5c	0.055568084
219	0x3e129cc9	0.14317621
220	0x3db42dac	0.08797774
221	0x3e041a90	0.12900758
222	0x3d8a3eb1	0.06750239
223	0xbd275bff	-0.04085922
224	0x3e143637	0.14473806
225	0x3e0284f3	0.12746029
226	0xb9e0ee00	-0.00042901933
227	0xbd703223	-0.058641564
228	0x3dc9da74	0.0985612
229	0xbdd53589	-0.10410602
230	0xbe1cab3c	-0.15299696
231	0x3e3718ad	0.17880507
232	0xbe2b5506	-0.16731653
233	0x3bd9cb9c	0.0066465866
234	0x3e1627c1	0.14663602
235	0x3dfc9cf8	0.12334627
236	0xbd509f1d	-0.050932992
237	0xbe0694a4	-0.1314264
238	0x3de74440	0.112923145
239	0xbde1014f	-0.10986578
240	0x3b011780	0.0019697845
241	0x3e0e2fe2	0.13885453
242	0xbe055fa2	-0.13024762
243	0xbb873f60	-0.004127428
244	0xbdf0fc46	-0.11766867
245	0xbd6b3b38	-0.057429522
246	0xbd284068	-0.041077048
247	0x3d7336f4	0.05937858
248	0x3d89ba6e	0.06725012
249	0xbe12f817	-0.14352451
250	0x3d4d8724	0.05017771
251	0xbdd21437	-0.10257762
252	0x3e1e3ca0	0.15452814
253	0x3d9c9d84	0.07647231
254	0x3db71c04	0.089408904
255	0xbe047abe	-0.12937447

actor/a3/BiasAdd/ReadVariableOp:0 f4 [80]
0	0x39aba865	0.00032741125
1	0xb9ab8679	-0.00032715852
2	0x00000000	0.0
3	0x00000000	0.0
4	0x00000000	0.0
5	0x39abbaa8	0.0003275473
6	0x00000000	0.0
7	0xb94e613e	-0.00019681916
8	0x396761b1	0.0002206627
9	0x3901bc32	0.00012372507
10	0x39abfee0	0.00032805558
11	0x00000000	0.0
12	0x00000000	0.0
13	0x391b5b30	0.00014815922
14	0x00000000	0.0
15	0x391c59e5	0.00014910808
16	0x39abad16	0.0003274462
17	0x39aba66e	0.0003273966
18	0x38d0824e	9.942484e-05
19	0x00000000	0.0
20	0x39aba222	0.0003273646
21	0x38ce02b0	9.823346e-05
22	0x00000000	0.0
23	0x39aba297	0.000327368
24	0x39fbc947	0.00048024414
25	0x00000000	0.0
26	0x39ab9e10	0.00032733427
27	0xb9ab8b76	-0.00032719568
28	0x39ab980c	0.00032728945
29	0x00000000	0.0
30	0x39abf028	0.00032794592
31	0x00000000	0.0
32	0xb9b7fc9f	-0.00035092697
33	0x39abb6d9	0.00032751894
34	0x3994ce1d	0.00028382326
35	0x39abb555	0.00032750765
36	0x39ab7d92	0.0003270922
37	0x39abb0bd	0.00032747342
38	0xb9ab54da	-0.0003267888
39	0x00000000	0.0
40	0xb9ab81f6	-0.0003271249
41	0xb9ab7546	-0.00032703037
42	0x00000000	0.0
43	0xb9ab62ba	-0.0003268922
44	0x39abbb41	0.00032755177
45	0x39abc000	0.00032758713
46	0x00000000	0.0
47	0x39aba85c	0.000327411
48	0x00000000	0.0
49	0x39aba76d	0.00032740404
50	0xb9ab7e4d	-0.00032709763
51	0xb8cdfd7b	-9.822376e-05
52	0xb5c884da	-1.4939826e-06
53	0xb9ab89ee	-0.00032718427
54	0x00000000	0.0
55	0xb7609e34	-1.3388275e-05
56	0x00000000	0.0
57	0x00000000	0.0
58	0x00000000	0.0
59	0xb9ab75c6	-0.0003270341
60	0x398784bc	0.000258481
61	0x38d219e1	0.00010018401
62	0xb9ab8fc7	-0.00032722784
63	0xb9ab8818	-0.0003271706
64	0xb9ab816c	-0.00032712088
65	0xb9cc5686	-0.00038974377
66	0x00000000	0.0
67	0x39d95062	0.00041449355
68	0x00000000	0.0
69	0x00000000	0.0
70	0x00000000	0.0
71	0x39ab9cd0	0.00032732496
72	0xb9ab8962	-0.0003271802
73	0xb9ab8355	-0.00032713512
74	0xb9ab8ccf	-0.00032720572
75	0x39abc4d0	0.00032762298
76	0xb9b8c6a9	-0.00035243228
77	0x00000000	0.0
78	0x00000000	0.0
79	0x00000000	0.0

actor/a2/MatMul/ReadVariableOp:0 f4 [130, 100]
0	0x3d852e06	0.06502919
1	0x3e0e54fd	0.13899608
2	0xbe1a63be	-0.15077111
3	0xbdcc7216	-0.09982698
4	0xbd4fdc58	-0.050747246
5	0x3dbdfa67	0.09276276
6	0xbdd3e792	-0.10346903
7	0xbd90a120	-0.07061982
8	0xbd08235b	-0.033236843
9	0x3d9c9837	0.0764622
10	0x3de4cbbf	0.11171674
11	0xbdd47ee4	-0.10375765
12	0xbd8f4d25	-0.06997136
13	0xbd4e326a	-0.050341047
14	0xbe0132bb	-0.12617008
15	0xbc275b00	-0.010214567
16	0xbc3cc390	-0.011521235
17	0x3d975a93	0.073903225
18	0x3e221aff	0.1583061
19	0xbda600b2	-0.08105601
20	0xbccdfb72	-0.025144313
21	0x3e161ad2	0.14658669
22	0x3e1136d1	0.14181067
23	0xbd03ff30	-0.032225788
24	0x3e0f9a6f	0.14023755
25	0x3e18c4e3	0.14918856
26	0xbd122970	-0.03568405
27	0xbdfc1c5a	-0.12310095
28	0xbe1e7ff9	-0.15478505
29	0xbd574ebe	-0.05256533
30	0xbd8ea847	-0.0696569
31	0xbe046bbd	-0.12931724
32	0x3d50bbb0	0.050960243
33	0xbe0edc26	-0.13951167
34	0x3e1beb7a	0.15226546
35	0x3da50cc2	0.08059074
36	0x3d801c9b	0.06255456
37	0x3d9da938	0.076982915
38	0x3d523164	0.051316634
39	0xbd52def1	-0.051482145
40	0x3d965d04	0.0734196
41	0xbda3dbc7	-0.080009036
42	0xbe19bf0d	-0.15014286
43	0xbb86b15c	-0.0041104984
44	0xbdc6cac2	-0.09706642
45	0x3d11ed78	0.03562686
46	0xbd85b2ff	-0.065282814
47	0x3e16428a	0.1467382
48	0xbca28c5b	-0.019842317
49	0x3ce97ce8	0.028501943
50	0xbe0517f2	-0.12997416
51	0xbca7b5f0	-0.020472497
52	0xbcba2230	-0.02272138
53	0xbd85d59f	-0.065348856
54	0xbdb003a8	-0.085944474
55	0x3dbbd24e	0.09170972
56	0xbe10024d	-0.14063378
57	0x3d209aa2	0.03920997
58	0xbe1da60d	-0.15395375
59	0xbd511943	-0.051049482
60	0xbe1971a9	-0.14984764
61	0x3c65d832	0.014028596
62	0xbbcff020	-0.006345764
63	0x3b213840	0.0024600178
64	0xbe0e89cf	-0.13919757
65	0xbe0a5f00	-0.13512802
66	0x3dcd5912	0.100267544
67	0xbe1d7633	-0.1537712
68	0x3d978e4e	0.07400189
69	0xbb91ef75	-0.0044535943
70	0xbd82cbd4	-0.063865334
71	0x3b1c1dc0	0.0023821443
72	0xbc99fa64	-0.018796153
73	0xbe1494c3	-0.14509873
74	0xbddc7e98	-0.10766333
75	0x3dc240fc	0.09485051
76	0xbd697878	-0.056999654
77	0x3e04d850	0.12973142
78	0xbe196ed5	-0.14983685
79	0x3e19830d	0.14991398
80	0xbd932f40	-0.071867466
81	0xbd945174	-0.072420985
82	0x3d34895e	0.044076316
83	0x3cb08390	0.021547109
84	0xbdfc6b60	-0.12325168
85	0xbd54795c	-0.05187355
86	0x3de6f49a	0.11277123
87	0xbdf59f37	-0.119932584
88	0xbd25c04d	-0.040466595
89	0xbe03161d	-0.12801404
90	0xbd8656a4	-0.06559494
91	0x3d848df0	0.06472385
92	0x3d911a60	0.07085109
93	0x3d0e2d10	0.034710944
94	0xbdf98400	-0.1218338
95	0xbde1f0f8	-0.11032289
96	0x3c80caf0	0.015721768
97	0x3cbaf7ce	0.02282324
98	0x3d9a8df1	0.075466044
99	0xbd6fbcf1	-0.058529798
100	0x3da50028	0.080566704
101	0xbe06ce6a	-0.13164678
102	0xbd3d15ea	-0.046163477
103	0x3dd081aa	0.101809815
104	0xbdb852b4	-0.09000149
105	0xbe104b11	-0.14091136
106	0xbe128cce	-0.14311525
107	0x3b8b6b80	0.0042547584
108	0xbd91e668	-0.07124025
109	0x3d40747c	0.04698609
110	0x3e0e7ee5	0.13915594
111	0xbe128594	-0.14308769
112	0xbcfd4100	-0.030914783
113	0xbe23b299	-0.15986098
114	0xbc9d5808	-0.019207016
115	0x3e1f35a5	0.15547808
116	0x3dc936e6	0.09824924
117	0x3d9ed792	0.077559605
118	0x3d15ecfc	0.03660296
119	0x3b8149a0	0.0039455444
120	0xbe082632	-0.1329582
121	0xbdfe7e7e	-0.1242647
122	0xbe24043c	-0.1601724
123	0x3bb60540	0.005554825
124	0x3e0751ef	0.13214849
125	0x3db98cb6	0.090600416
126	0xbdbcf2b4	-0.092259794
127	0x3cd25258	0.02567403
128	0x3d8541c6	0.06506686
129	0x3e08769f	0.133265
130	0x3e13f96d	0.14450617
131	0xbd81ce92	-0.06338228
132	0x3e24fdc7	0.16112433
133	0x3dd4a2b2	0.10382594
134	0x3e1d462d	0.15358801
135	0xba80aa80	-0.0009816438
136	0x3d9cafa4	0.07650688
137	0x3d15a058	0.03652987
138	0xbddddcb2	-0.1083311
139	0xbdcfc053	-0.10144105
140	0xbd7c8dea	-0.061658777
141	0xbe0d6496	-0.13807902
142	0x3e20a8b5	0.15689357
143	0x3c4e4590	0.012589827
144	0xbd8c3f18	-0.06847972
145	0xbc88ccb8	-0.01669918
146	0x3dad9a82	0.08476736
147	0xbdde65c4	-0.10859254
148	0x3e1fd7d9	0.15609683
149	0xbd4bcbaa	-0.049754776
150	0xbdb4f8c2	-0.08836509
151	0xbdacb826	-0.08433561
152	0x3de10182	0.10986616
153	0xbd01e608	-0.031713516
154	0x3d8fd3d4	0.07022825
155	0x3dd475ae	0.10374008
156	0xbe2477b5	-0.1606129
157	0x3d8e248c	0.069405645
158	0x3da1b45e	0.078957304
159	0xbd96dc6f	-0.07366263
160	0xbddf845a	-0.10913916
161	0x3d974820	0.073868036
162	0xbca448b0	-0.020054191
163	0x3df39642	0.11893894
164	0x3d9f23de	0.07770513
165	0xbd5ee20c	-0.054414794
166	0xbce0b6d0	-0.027430922
167	0xbc9b00f8	-0.01892136
168	0x3e2213d7	0.15827881
169	0x3e203dd1	0.15648581
170	0x3d76c7b4	0.060249045
171	0x3d42e390	0.0475803
172	0xbe141009	-0.14459242
173	0xbe0cf89a	-0.13766709
174	0xbd626986	-0.055276416
175	0xbdda2844	-0.10652211
176	0xbd48b9fa	-0.049005486
177	0x3dfa8512	0.122324124
178	0xbc760c70	-0.015017614
179	0xbc997ad8	-0.018735334
180	0xbdd34886	-0.10316567
181	0xbe23f765	-0.16012342
182	0x3d495248	0.049150735
183	0x3dd9a016	0.10626237
184	0x3da1a046	0.07891898
185	0x3dfa8eee	0.12234293
186	0xbdb569bd	-0.088580586
187	0x3de1cfd6	0.1102597
188	0xbe239d76	-0.15978035
189	0xbe1b6298	-0.1517433
190	0x3db86c86	0.09005074
191	0xbe08e910	-0.13370156
192	0x3ddbb1a6	0.10727243
193	0xbe14de1c	-0.14537853
194	0xbdd7fecc	-0.105466455
195	0x3c925410	0.01786235
196	0x3cc2f4e0	0.023798406
197	0x3d147dac	0.036252663
198	0x3df575ae	0.11985336
199	0x3e17145f	0.14753865
200	0x3d0ad824	0.033897534
201	0x3c820390	0.01587084
202	0x3ddea406	0.10871129
203	0x3e0f6f11	0.14007212
204	0xbc837d00	-0.016050816
205	0x3e196895	0.14981301
206	0x3ca37460	0.019952953
207	0x3daac53a	0.08338399
208	0xbe098067	-0.13427888
209	0xbd951c3b	-0.07280775
210	0x3e1e48e7	0.15457498
211	0xbdd9eba8	-0.10640651
212	0x3dfb180e	0.122604474
213	0xbde1643b	-0.110054456
214	0xbdc7fafd	-0.09764669
215	0xbbac08e0	-0.0052500814
216	0x3e204a05	0.15653236
217	0xbd2ab2bc	-0.04167436
218	0xbd60e654	-0.054907158
219	0xbdd01182	-0.10159589
220	0x3b1512c0	0.0022746772
221	0x3b8bc8e0	0.0042658895
222	0x3db062d0	0.08612597
223	0xbe1d8050	-0.15380979
224	0xbe1c42c7	-0.15259849
225	0xbe0cb162	-0.13739541
226	0xbd6c67f4	-0.057716325
227	0xbe1983aa	-0.14991632
228	0x3e137153	0.14398699
229	0xbd26faa6	-0.04076638
230	0x3c09de50	0.00841482
231	0xbe1b9716	-0.15194353
232	0x3e083e0b	0.13304918
233	0xbd4dd69c	-0.050253496
234	0xbc0d80d0	-0.008636668
235	0xbdb900ac	-0.09033331
236	0x3e218579	0.15773572
237	0x3dfe8152	0.1242701
238	0x3dcd349e	0.100198016
239	0xbcc59af0	-0.024121732
240	0xbd6ef9ae	-0.05834358
241	0xbd95fec1	-0.07323981
242	0x3b547e00	0.0032423735
243	0x3e195015	0.14971955
244	0xbdff672d	-0.12470851
245	0xbd8992d1	-0.06717456
246	0x3dee9aa6	0.116505906
247	0x3d61746c	0.05504267
248	0xbc155250	-0.009113863
249	0x3d01d2f8	0.031695336
250	0x3e0005e7	0.12502252
251	0x39979a00	0.00028915703
252	0x3d71a9d0	0.058999836
253	0xbdca1756	-0.09867732
254	0xbdbdb3b2	-0.0926279
255	0x3bee70e0	0.0072766393

actor/a2/BiasAdd/ReadVariableOp:0 f4 [100]
0	0xb9a8862f	-0.00032143432
1	0x00000000	0.0
2	0x39b24a37	0.000340061
3	0x00000000	0.0
4	0x00000000	0.0
5	0xb9b91376	-0.0003530045
6	0x39b406a9	0.00034337238
7	0x399e328d	0.00030173772
8	0x3942a2c8	0.00018561922
9	0xb99cbf00	-0.00029896945
10	0xb9e67a7f	-0.00043960285
11	0x00000000	0.0
12	0x00000000	0.0
13	0xb9cc4fed	-0.00038969461
14	0x00000000	0.0
15	0xb8b208e3	-8.489357e-05
16	0x00000000	0.0
17	0xb9af68aa	-0.00033456582
18	0x00000000	0.0
19	0x39b94929	0.00035340458
20	0x3992da3f	0.00028009896
21	0x39b5047f	0.0003452636
22	0x00000000	0.0
23	0x00000000	0.0
24	0x39f5d06c	0.00046885328
25	0x39a411c1	0.00031293745
26	0x00000000	0.0
27	0x00000000	0.0
28	0x00000000	0.0
29	0x00000000	0.0
30	0xb9cfd4e2	-0.00039640727
31	0x00000000	0.0
32	0x00000000	0.0
33	0x00000000	0.0
34	0x396c8b5e	0.00022558632
35	0x00000000	0.0
36	0x394cc5f9	0.00019528707
37	0xb9b30d70	-0.00034151552
38	0x00000000	0.0
39	0xb9a73efe	-0.00031899655
40	0x00000000	0.0
41	0xb9a673b7	-0.00031748202
42	0x00000000	0.0
43	0xb8f1e2df	-0.000115340335
44	0x00000000	0.0
45	0xb9b1e76e	-0.000339325
46	0x39bbfd18	0.0003585599
47	0x39a8c92b	0.0003219334
48	0x39b322bc	0.0003416742
49	0xb9aa8c03	-0.00032529244
50	0xb98e0a15	-0.00027091862
51	0xb9ac3ce9	-0.00032851778
52	0x00000000	0.0
53	0x00000000	0.0
54	0x3a064e76	0.0005123386
55	0x00000000	0.0
56	0x39e21f02	0.00043129182
57	0xb9b5dcd6	-0.00034687546
58	0x399f35e3	0.00030366992
59	0xb98ee267	-0.00027253033
60	0xb91b7214	-0.0001482445
61	0x39af5fd0	0.00033449987
62	0x39aebbf9	0.00033327917
63	0x00000000	0.0
64	0xb9b3c635	-0.00034289216
65	0xb9affb79	-0.00033565963
66	0x00000000	0.0
67	0x00000000	0.0
68	0x00000000	0.0
69	0xb9bfe761	-0.0003660275
70	0x00000000	0.0
71	0x00000000	0.0
72	0x39adc15d	0.00033141198
73	0x00000000	0.0
74	0x00000000	0.0
75	0xb9b3e5e3	-0.0003431282
76	0x00000000	0.0
77	0xb9b8e7c0	-0.00035267882
78	0xb9a89a13	-0.0003215825
79	0x00000000	0.0
80	0xb9986f73	-0.00029074735
81	0x39aec8dc	0.00033337518
82	0x39b96c15	0.00035366477
83	0x39957bf9	0.00028511861
84	0x39a2fd54	0.00031087792
85	0xb8e28798	-0.00010801776
86	0x00000000	0.0
87	0x00000000	0.0
88	0x39d8a7c2	0.0004132372
89	0x00000000	0.0
90	0x39af32ba	0.00033416395
91	0x39a9258a	0.0003226216
92	0xb976d779	-0.00023540658
93	0x00000000	0.0
94	0x00000000	0.0
95	0x00000000	0.0
96	0x00000000	0.0
97	0xb9d607bd	-0.00040823026
98	0xb9348c66	-0.0001721844
99	0x39b13fbe	0.00033807562

actor/a1/MatMul/ReadVariableOp:0 f4 [18, 130]
0	0xbe0efea7	-0.1396433
1	0xbdfabfef	-0.1224364
2	0xbe0887e5	-0.1333309
3	0xbe43e797	-0.19131313
4	0x3d752075	0.059845407
5	0x3e1d6c62	0.15373376
6	0xbc96d3c8	-0.018411532
7	0x3e140f74	0.1445902
8	0xbd53781a	-0.05162821
9	0x3e44d326	0.19221172
10	0xbb744cd8	-0.0037277248
11	0x3d19a3a7	0.037509587
12	0x3d5bb149	0.05363587
13	0x3e2f405f	0.171144
14	0x3e41d95b	0.18930571
15	0x3e2d0758	0.16897333
16	0xbdf0cb0f	-0.1175748
17	0x3e0366c0	0.12832165
18	0x3dcee9a4	0.10103157
19	0x3da82718	0.082105815
20	0x3d26d9a1	0.04073489
21	0xbe3952fa	-0.1809806
22	0x3e34fdd2	0.1767495
23	0xbe19eac4	-0.15030962
24	0xbdb634f4	-0.08896819
25	0xbe005105	-0.12530906
26	0xbcbe6ce0	-0.023245275
27	0xbd9088bf	-0.07057332
28	0x3dfaa3ec	0.12238297
29	0x3bda56da	0.0066631855
30	0x3d68c3c8	0.056827337
31	0xbd514f54	-0.051101044
32	0x3decec79	0.11568541
33	0x3dca9fcd	0.09893761
34	0x3e1d59f3	0.15366344
35	0xbdf29410	-0.11844647
36	0x3c0ae2a0	0.008476883
37	0x3e186a70	0.14884353
38	0x3cb4c930	0.02206859
39	0xbe229ae2	-0.15879396
40	0x3de0b773	0.1097249
41	0x3e1e31c4	0.15448672
42	0x3e268b3d	0.16264053
43	0xbe3b53ab	-0.18293636
44	0xbc923f58	-0.01785247
45	0xbd611ac3	-0.054957163
46	0x3e4818e3	0.19540744
47	0x3b25a28b	0.0025273885
48	0xbd0772fd	-0.033068646
49	0x3cecdb48	0.028913155
50	0x3e29055a	0.16505948
51	0xbd5fd39d	-0.05464517
52	0xbdb719d7	-0.089404754
53	0xbd7f696c	-0.062356398
54	0x3cb19128	0.021675661
55	0x3e1a48a2	0.1506677
56	0xbdc891db	-0.09793445
57	0x3dee13a0	0.11624837
58	0xbe1fa714	-0.15591079
59	0x3e393f5b	0.18090574
60	0x3dfbb3a6	0.122901246
61	0x3e199524	0.14998299
62	0x3dc4f9c0	0.096179485
63	0x3ccd6338	0.025071725
64	0xbd29a6f4	-0.041418985
65	0x3e27a146	0.16370115
66	0x3e254522	0.16139653
67	0x3ca952be	0.020669337
68	0xbe11c808	-0.14236462
69	0x3e00e19d	0.12586065
70	0xbb0e4880	-0.0021710694
71	0x3d6137a4	0.054984704
72	0x3e3254d9	0.1741518
73	0xbd91ea3d	-0.071247555
74	0x3e44f5cc	0.19234389
75	0xbe4e0d19	-0.20122184
76	0x3c4174e0	0.01180765
77	0x3d42e284	0.047579303
78	0xbd9d49a9	-0.07680065
79	0x3d175091	0.03694207
80	0x3dca8600	0.0988884
81	0x3e0160a2	0.12634519
82	0xbe47279a	-0.194487
83	0xbe46dffd	-0.19421382
84	0xbe22c856	-0.15896735
85	0xbd860ef6	-0.06545822
86	0x3e30df94	0.17272788
87	0xbd8c1cc0	-0.06841421
88	0xbda5d79d	-0.080977656
89	0xbd5fffb1	-0.054687206
90	0xbcafd8fc	-0.02146577
91	0xbd527456	-0.051380478
92	0x3dd080a4	0.10180786
93	0xbe18ad11	-0.1490977
94	0x3dd0ab88	0.10188967
95	0xbda29f1f	-0.07940506
96	0x3d2c2624	0.04202856
97	0x3e00838d	0.12550183
98	0xbd5914ec	-0.05299847
99	0x3e1e71c9	0.15473093
100	0xbe3c7b9f	-0.18406533
101	0x3e17acc5	0.14812
102	0x3c91ac28	0.017782286
103	0xbe08b516	-0.13350329
104	0xbd77e16c	-0.060517713
105	0xbd8d7d5a	-0.069086745
106	0xbe3f6d09	-0.18693937
107	0x3e21fe19	0.15819587
108	0x3d867026	0.06564359
109	0xbddadc33	-0.10686531
110	0xbd0a9400	-0.03383255
111	0xbdba3c7c	-0.09093568
112	0xbe064c8b	-0.13115136
113	0xbdf9b2c5	-0.12192301
114	0x3e00c540	0.12575245
115	0xbd95d55a	-0.07316084
116	0x3e00f506	0.12593469
117	0x3e36f8b3	0.17868309
118	0x3dffebd2	0.12496151
119	0xbd89179b	-0.066939555
120	0xbe3e76f2	-0.18600062
121	0xbdeecff1	-0.116607554
122	0xbcd7bd58	-0.026335403
123	0x3daa9d70	0.0833081
124	0xbe4af1c3	-0.19818787
125	0xbbeafb0e	-0.0071710413
126	0xbe00d4cc	-0.12581176
127	0xbe4388df	-0.19095181
128	0xbcfae018	-0.030624434
129	0x3d27e1ee	0.040986948
130	0xbd864fc6	-0.06558184
131	0xbe464f2f	-0.19366144
132	0xbdfe6fd2	-0.12423672
133	0x3c48b5a6	0.01225034
134	0xbe362a2c	-0.17789525
135	0xbe3cf27a	-0.18451872
136	0xbe463dee	-0.19359562
137	0xbe1e4531	-0.15456082
138	0xbe3f0755	-0.1865514
139	0xbe1eda20	-0.15512896
140	0xbdff13fb	-0.12454983
141	0xba1d37a3	-0.0005997365
142	0xbdd5ffc7	-0.10449176
143	0x3e203637	0.15645681
144	0xbdfeee0d	-0.12447748
145	0xbe44dd14	-0.1922496
146	0x3d006400	0.031345367
147	0xbdefb0b0	-0.11703622
148	0x3cdbb4f0	0.026819676
149	0xbe38c3c4	-0.18043429
150	0xbdfb32c6	-0.12265544
151	0xbe39e833	-0.18154983
152	0xbcfa73d5	-0.030572811
153	0xbe030f03	-0.12798695
154	0xbdc5c1b3	-0.09656086
155	0x3e4299da	0.19004002
156	0x3dda5c70	0.10662162
157	0xbd4aff8c	-0.049560115
158	0xbe0aa954	-0.13541156
159	0xbd3c51b5	-0.04597636
160	0x3d5b4ec0	0.0535419
161	0x3da5e738	0.08100742
162	0x3df3b9ca	0.11900671
163	0x3c106bbd	0.008814749
164	0x3e1caae0	0.15299559
165	0xbba58724	-0.0050515104
166	0xbdb60e00	-0.08889389
167	0xbe12f998	-0.14353025
168	0xbe2a76c2	-0.16646865
169	0xbccf1bc2	-0.02528179
170	0xbdb6cc45	-0.0892568
171	0xbe2cbc3a	-0.16868678
172	0xbe34c76c	-0.17654198
173	0xbe30d8fa	-0.1727027
174	0xbdc3a9cd	-0.09553871
175	0xbe46575f	-0.19369267
176	0xbe0f48c6	-0.13992605
177	0x3e09ef19	0.13470115
178	0x3d8509d6	0.06496017
179	0x3c8d0a50	0.017216831
180	0xbca0dcc0	-0.019636512
181	0xbd5949d5	-0.053048927
182	0x3cbd0730	0.023074716
183	0xbd718a50	-0.058969796
184	0x3e1b4b9a	0.15165558
185	0x3e484c9a	0.19560471
186	0x3db83f48	0.08996445
187	0xbdeb23b0	-0.11481416
188	0x3d8d974f	0.069136254
189	0xbd0ad677	-0.033895936
190	0xbdb06371	-0.08612717
191	0x3e0f66e6	0.14004096
192	0x3d486148	0.0489209
193	0x3cd457e8	0.025920823
194	0x3d513c86	0.05108311
195	0x3e039a96	0.12851939
196	0x3e37d870	0.17953658
197	0x3e4262ba	0.18982974
198	0xbe060955	-0.13089497
199	0xbd562a1f	-0.052286264
200	0xbdf68082	-0.1203623
201	0x3d5d629a	0.054049112
202	0xbe21f044	-0.1581431
203	0xbe372b7e	-0.17887685
204	0x3d2b5728	0.041831166
205	0x3defa864	0.1170204
206	0xbe2687d4	-0.16262752
207	0xbe4ca000	-0.1998291
208	0xbe46f357	-0.19428764
209	0xbdb3d518	-0.08780879
210	0x3dea187c	0.11430451
211	0xbe36923f	-0.17829226
212	0xbe24782a	-0.16061464
213	0x3c7a2e70	0.015269861
214	0x3e30404c	0.17212027
215	0x3e431b86	0.19053468
216	0x3d41f974	0.047357038
217	0x3e1b5ce3	0.15172152
218	0xbe47b8ca	-0.19504085
219	0x3d984dca	0.07436712
220	0x3e3511ff	0.17682646
221	0x3e3568e1	0.1771579
222	0x3cfe80bd	0.031067247
223	0x3dfc9a60	0.12334132
224	0x3aabc300	0.0013104379
225	0xbdd75006	-0.1051331
226	0x3e450d3a	0.19243327
227	0xbd3c3650	-0.045950234
228	0x3d22b584	0.039723888
229	0x3e2e787f	0.17038153
230	0x3d877f0d	0.0661603
231	0x3df4e688	0.11958033
232	0x3d3f41dc	0.046693668
233	0x3e161327	0.14655744
234	0x3e4b0a42	0.19828132
235	0xbdad4814	-0.084610134
236	0x3e30da42	0.17270759
237	0xbde6027f	-0.11230945
238	0x3caafa33	0.020871257
239	0x3d9ebc18	0.0775072
240	0xbe01e9a0	-0.12686777
241	0x3c9ac978	0.018894896
242	0xbcb3bec1	-0.021941544
243	0x3c297672	0.010343181
244	0x3c2b1fad	0.010444564
245	0x3c4a5710	0.012349859
246	0x3df348ec	0.11879143
247	0xbdedb0c2	-0.116059795
248	0x3de7da29	0.113209076
249	0x3acdc06e	0.0015697607
250	0xbe2aacb0	-0.16667438
251	0xbe4505d2	-0.19240502
252	0xbe071b0e	-0.13193914
253	0x3e1997dc	0.14999336
254	0x3dcc7ce8	0.099847615
255	0xbca484fd	-0.020082945

actor/a1/BiasAdd/ReadVariableOp:0 f4 [130]
0	0xb9c5a49b	-0.0003769741
1	0x00000000	0.0
2	0x00000000	0.0
3	0xb92822a6	-0.00016034636
4	0x39b3b3a0	0.00034275372
5	0x00000000	0.0
6	0x00000000	0.0
7	0x39aab7ea	0.00032561953
8	0x39a5fa5f	0.00031657793
9	0x39bcdf99	0.00036024748
10	0x39b07d47	0.00033662675
11	0x39bd7120	0.00036133174
12	0xb9880351	-0.00025942412
13	0x39aaf55a	0.00032607728
14	0x39ca476a	0.0003858165
15	0x39bc76ee	0.00035946764
16	0x00000000	0.0
17	0xb9beb8ba	-0.00036377256
18	0x00000000	0.0
19	0xb909a617	-0.00013127211
20	0x3390487d	6.718708e-08
21	0x39b1b456	0.00033894432
22	0x391f26cd	0.00015177876
23	0x00000000	0.0
24	0xb99e2315	-0.00030162247
25	0x3943a039	0.00018656337
26	0x00000000	0.0
27	0xb9b89595	-0.00035206662
28	0x00000000	0.0
29	0x37b9cef1	2.2150083e-05
30	0x00000000	0.0
31	0x00000000	0.0
32	0xb9ac1520	-0.00032822136
33	0xb9c43a60	-0.00037427526
34	0x39ae1f79	0.00033211315
35	0x39a6572c	0.00031726935
36	0x00000000	0.0
37	0xb9a4c1a4	-0.0003142479
38	0xb94f524d	-0.00019771718
39	0x39e6e87e	0.0004404224
40	0xb943f82c	-0.000186891
41	0x00000000	0.0
42	0x39eb1511	0.0004483839
43	0xb9a4c1f7	-0.00031425033
44	0x00000000	0.0
45	0x3878bfcd	5.9306436e-05
46	0xb9bf4e3a	-0.00036488642
47	0x39cd345f	0.00039139666
48	0x3993d27b	0.00028194845
49	0x00000000	0.0
50	0x00000000	0.0
51	0xb9a84811	-0.0003209715
52	0x00000000	0.0
53	0x00000000	0.0
54	0x00000000	0.0
55	0x00000000	0.0
56	0x00000000	0.0
57	0xb961be84	-0.00021528645
58	0x39b87b99	0.00035187302
59	0x39ae8f0e	0.0003329445
60	0x389e6472	7.5527365e-05
61	0xb9be1dac	-0.0003626173
62	0x00000000	0.0
63	0x00000000	0.0
64	0xb9ad9fc1	-0.00033116157
65	0x00000000	0.0
66	0x00000000	0.0
67	0x39d30f6c	0.00040256546
68	0xb9ab5f15	-0.00032686503
69	0xb9ad1984	-0.00033016142
70	0x00000000	0.0
71	0xb9b16fbf	-0.00033843328
72	0xb5c8a08b	-1.4947885e-06
73	0x39a39320	0.000311994
74	0x00000000	0.0
75	0xb911ade9	-0.00013893064
76	0x00000000	0.0
77	0x00000000	0.0
78	0x398040c1	0.00024462308
79	0x39457d33	0.00018834024
80	0x00000000	0.0
81	0x00000000	0.0
82	0x394d3feb	0.00019574135
83	0x00000000	0.0
84	0x00000000	0.0
85	0x00000000	0.0
86	0x00000000	0.0
87	0xb92dfa42	-0.00016591794
88	0x00000000	0.0
89	0x39e8f9e8	0.00044436683
90	0x36b51875	5.3970675e-06
91	0xb99d649b	-0.0003002033
92	0x39092de1	0.0001308243
93	0x00000000	0.0
94	0x00000000	0.0
95	0x00000000	0.0
96	0x00000000	0.0
97	0x39b1efa9	0.00033938632
98	0x00000000	0.0
99	0xb9d6ae2a	-0.00040947023
100	0xb9b594d7	-0.00034633905
101	0xb9b39be1	-0.0003425768
102	0x00000000	0.0
103	0xb9be8002	-0.00036334997
104	0x00000000	0.0
105	0x390df4bd	0.0001353798
106	0xb820602a	-3.8236532e-05
107	0xb944ac25	-0.00018756145
108	0xb9a964d3	-0.00032309312
109	0x00000000	0.0
110	0x00000000	0.0
111	0x00000000	0.0
112	0xb9afb607	-0.00033514222
113	0x39b9724c	0.00035371108
114	0x39be4c43	0.00036296443
115	0x00000000	0.0
116	0x00000000	0.0
117	0x39b81583	0.00035111242
118	0xb8f152ab	-0.000115071736
119	0xb9ac696c	-0.00032884942
120	0x39d6f7ef	0.00041001986
121	0xb9ab9dd8	-0.00032733264
122	0x00000000	0.0
123	0x00000000	0.0
124	0xb9c42041	-0.00037408064
125	0xb86d9518	-5.6644058e-05
126	0x383717a4	4.3652617e-05
127	0x39bd7636	0.00036136963
128	0x00000000	0.0
129	0x39b4c4be	0.0003447886
